# Parameters
nc: 20  # number of classes
depth_multiple: 1.0  # model depth multiple
width_multiple: 1.0  # layer channel multiple
anchors:
  - [ 35,54, 85,71, 69,149 ]  # P3/8
  - [ 161,144, 133,263, 224,318 ]  # P4/16
  - [ 404,211, 345,430, 538,386 ]  # P5/32 for VOC

# YOLOv3 Darknet53
backbone:
  # [from, number, module, args]
  [ [ -1, 1, Conv, [ 32, 3, 1, 1 ] ], # 0
    [ -1, 1, Conv, [ 64, 3, 2, 1 ] ],  # 1-P1/2
    [ -1, 1, ResBlock, [ 64, 1, True ] ],
    [ -1, 1, Conv, [ 128, 3, 2, 1 ] ],  # 3-P2/4
    [ -1, 1, ResBlock, [ 128, 2, True ] ],
    [ -1, 1, Conv, [ 256, 3, 2, 1 ] ],  # 5-P3/8
    [ -1, 1, ResBlock, [ 256, 8, True ] ], # 6
    [ -1, 1, Conv, [ 512, 3, 2, 1 ] ],  # 7-P4/16
    [ -1, 1, ResBlock, [ 512, 8, True ] ], # 8
    [ -1, 1, Conv, [ 1024, 3, 2, 1 ] ],  # 9-P5/32
    [ -1, 1, ResBlock, [ 1024, 4, True ] ], # 10
  ]

# YOLOv3 head
head:
  [
    [ -1, 1, ResBlock, [ 1024, 4, True ] ],
    [ -1, 1, Conv, [ 512, 1, 1 ] ], # 12

    [ -1, 1, Conv, [ 256, 1, 1 ] ],
    [ -1, 1, nn.Upsample, [ None, 2, 'nearest' ] ], # 14
    [ [ -1, 8 ], 1, Concat, [ 1, ] ],  # cat backbone P4 [14, 8]

    [ -1, 1, Conv, [ 256, 1, 1 ] ],
    [ -1, 1, Conv, [ 512, 3, 1, 1 ] ],
    [ -1, 1, ResBlock, [ 512, 1, False ] ],
    [ -1, 1, Conv, [ 256, 1, 1 ] ], # 19

    [ -1, 1, Conv, [ 128, 1, 1 ] ],
    [ -1, 1, nn.Upsample, [ None, 2, 'nearest' ] ], # 21
    [ [ -1, 6 ], 1, Concat, [ 1, ] ],  # cat backbone P3 [21, 6]

    [ -1, 1, Conv, [ 128, 1, 1 ] ], # 23

    [ -1, 1, Conv, [ 256, 3, 1, 1 ] ], # 24
    [ 19, 1, Conv, [ 512, 3, 1, 1 ] ], # 25
    [ 12, 1, Conv, [ 1024, 1, 1 ] ], # 26
    [ [ 24, 25, 26 ], 1, YOLOv2Detect, [ nc, anchors ] ],  # Detect(P3, P4, P5)
  ]