# Parameters
nc: 20  # number of classes
depth_multiple: 1.0  # model depth multiple
width_multiple: 1.0  # layer channel multiple
anchors:
  - [ 46,61, 95,137, 255,174, 190,326, 453,371 ]  # P5/32 for VOC

# YOLOv2 Darknet19
backbone:
  # [from, number, module, args]
  [ [ -1, 1, Conv, [ 32, 3, 1, 1 ] ], # 0
    [ -1, 1, Conv, [ 64, 3, 2, 1 ] ],  # 1-P1/2
    [ -1, 1, Conv, [ 128, 3, 2, 1 ] ],  # 2-P2/4
    [ -1, 1, Conv, [ 64, 1, 1 ] ],
    [ -1, 1, Conv, [ 128, 3, 1, 1 ] ],
    [ -1, 1, Conv, [ 256, 3, 2, 1 ] ],  # 5-P3/8
    [ -1, 1, Conv, [ 128, 1, 1 ] ],
    [ -1, 1, Conv, [ 256, 3, 1 ] ],
    [ -1, 1, Conv, [ 512, 3, 2, 1 ] ],  # 8-P4/16
    [ -1, 1, Conv, [ 256, 1, 1 ] ],
    [ -1, 1, Conv, [ 512, 3, 1, 1 ] ],
    [ -1, 1, Conv, [ 256, 1, 1 ] ],
    [ -1, 1, Conv, [ 512, 3, 1, 1 ] ],
    [ -1, 1, Conv, [ 1024, 3, 2, 1 ] ],  # 13-P5/32
    [ -1, 1, Conv, [ 512, 1, 1 ] ],
    [ -1, 1, Conv, [ 1024, 3, 1, 1 ] ],
    [ -1, 1, Conv, [ 512, 1, 1 ] ],
    [ -1, 1, Conv, [ 1024, 3, 1, 1 ] ],  # 17
  ]

# YOLOv2 head
head:
  [
    [ 8, 1, Conv, [ 64, 1, 1 ] ],  # 18
    [ -1, 1, Reorg, [ 2, ] ],  # 19

    [ 17, 2, Conv, [ 1024, 3, 1, 1 ] ],  # 20
    [ [ -1, -2 ], 1, Concat, [ 1, ] ],  # cat [20, 19]

    [ -1, 1, Conv, [ 1024, 3, 1, 1 ] ],  # 21
    [ [ -1, ], 1, YOLOv2Detect, [ nc, anchors ] ],  # Detect(21)
  ]